models/ebm_model.pth (torch, 315875 bytes, 11 tensors)

conv1.weight f4 [16, 3, 5, 5]
0.0142941605 -0.12915231 -0.11265329 0.02931104 0.06391025 -0.025495524 0.023308754 0.083488375
-0.13442539 -0.06740419 0.06352625 -0.14960046 0.0049123694 -0.08234427 0.07769537 0.0006501187
0.12898579 0.01203576 0.07327153 0.08832093 -0.011026452 -0.1745288 0.027665503 0.024474967
0.025309116 0.0545712 0.09289821 0.014749511 -0.08137857 -0.07345703 0.040915776 -0.0031290033
0.008159054 -0.07935599 0.12819429 -0.025050819 -0.05086668 0.02045572 0.083398014 -0.06785251
-0.12961523 0.0056003984 0.07016751 -0.072893575 0.089590766 0.09926866 0.07511545 0.07935871
0.0012913233 -0.025340272 -0.02249092 0.05352407 -0.025852496 0.10688677 -0.07335582 0.0022069565
-0.09612388 0.16081212 -0.022059396 -0.063059434 0.09332904 0.0005657747 -0.0032185975 -0.026826516
-0.046797413 -0.07894334 -0.05685259 -0.120918654 -0.0027388004 -0.03839434 -0.005155079 -0.015203379
0.01870677 -0.0402612 0.036368195 -0.09598946 -0.07778469 0.011901628 -0.034940984 -0.11624685
0.048915368 0.04604581 -0.110012464 0.01566876 -0.026947116 0.014672391 -0.11700883 -0.1270313
-0.13924718 -0.085288815 -0.0029264628 0.07733964 -0.019513685 0.06580472 -0.088866 -0.019597223
-0.07940793 -0.121012166 -0.073980734 -0.0018719643 -0.078861505 -0.027486993 -0.060080923 -0.10788921
0.01880536 0.04871846 -0.015389216 -0.018604144 0.066624075 -0.11158563 -0.050294336 -0.13426259
0.037463143 -0.10701006 -0.028759575 -0.047713734 0.017141122 -0.08737893 -0.056858238 0.01359878
-0.09899961 0.05119513 -0.09674553 0.027455399 -0.013017147 0.043578062 -0.111260876 -0.055376753
-0.010096349 0.036870416 -0.11117156 -0.0113989385 -0.0071172086 -0.11328286 0.025261726 0.0039523733
-0.09220923 -0.004937471 -0.059334252 0.00039796403 -0.062293243 -0.06493391 0.07193501 0.009244055
-0.049948692 -0.029743878 -0.07359289 -0.055979032 -0.09586043 -0.0317277 -0.0072741257 -0.06822604
0.10247479 -0.019532695 0.049951803 0.12035642 -0.0816966 -0.08448566 0.04535859 -0.02922028
-0.04739632 0.046175007 -0.05273106 0.053034227 0.110044986 0.128031 -0.114412576 -0.097606495
0.040718876 -0.026989825 0.060057182 0.011762605 0.028684441 0.015444998 -0.07974071 -0.071642734
0.033732474 0.018000722 0.0129692545 0.04477499 -0.072570354 0.074562326 0.049784333 0.076631196
-0.057371795 0.0071464847 -0.011464316 -0.028463366 -0.03024155 -0.10907318 -0.0228743 -0.085859075
0.086813815 -0.006267432 0.11952531 -0.1384974 0.11599493 -0.09072763 -0.009837397 -0.08036456
0.012252995 -0.09801956 -0.05292183 -0.12711152 0.022000374 -0.0072139213 -0.025448151 0.06918333
0.050478805 0.046170045 0.049108453 -0.008282938 -0.08877935 0.00091776106 0.016087083 0.071916066
0.09098684 -0.030075515 -0.035105906 0.018919654 -0.033390343 0.10642729 0.077181846 -0.09936772
0.012846422 -0.021640085 -0.01650722 -0.08749068 0.015212872 0.03390349 -0.009399918 -0.0031581356
-0.049223382 -0.05184568 -0.042326666 0.047449965 -0.070276864 0.044678215 -0.0036092466 0.014327558
0.055412482 0.030125668 -0.11408897 0.06570622 -0.0657921 -0.0123791015 -0.0065089865 -0.08249007
0.05469586 0.075137444 -0.05074907 0.0002015718 -0.0037886766 -0.026567537 0.024701964 -0.0116027305
00000000: 0e32 6a3c 8140 04be c5b6 e6bd b51d f03c
00000010: 61e3 823d fddb d0bc 00f2 be3c f4fb aa3d
00000020: cfa6 09be 350b 8abd 0d1a 823d dd30 19be
00000030: f1f7 a03b 1da4 a8bd c01e 9f3d ba6c 2a3a
00000040: da14 043e a331 453c 620f 963d 9be1 b43d
00000050: 4ba8 34bc aeb7 32be c4a2 e23c ba7f c83c
00000060: 1055 cf3c 0d86 5f3d 6b41 be3d efa7 713c
00000070: cfa9 a6bd a470 96bd 4d97 273d f70f 4dbb
00000080: 8ead 053c 6585 a2bd 5d45 033e 6037 cdbc
00000090: 9459 50bd c192 a73c 94cc aa3d 42f6 8abd
000000a0: dbb9 04be 8c83 b73b fcb3 8f3d 3a49 95bd
000000b0: 5d7b b73d 5e4d cb3d 21d6 993d d286 a23d
000000c0: 9f41 a93a 6796 cfbc e13e b8bc 0e3c 5b3d
000000d0: 9dc8 d3bc 73e7 da3d 933b 96bd 96a2 103b
000000e0: 99dc c4bd efab 243e e8b5 b4bc 4e25 81bd
000000f0: 4c23 bf3d 7f50 143a 1bef 52bb 48c3 dbbc
00000100: a5ae 3fbd 0cad a1bd 43de 68bd 33a4 f7bd
00000110: 727d 33bb 6243 1dbd f0eb a8bb 9817 79bc
00000120: f13e 993c eee8 24bd d1f6 143d 1f96 c4bd
00000130: 944d 9fbd 0cff 423c 471e 0fbd d412 eebd
00000140: 7b5b 483d 889a 3c3d 374e e1bd c55b 803c
00000150: 33c0 dcbc 7864 703c 53a2 efbd 7e14 02be
00000160: d096 0ebe e7ab aebd e6c9 3fbb 3f64 9e3d
00000170: 2adb 9fbc a0c4 863d 61ff b5bd 5b8a a0bc
00000180: a0a0 a2bd 3ad5 f7bd 3683 97bd b35c f5ba
00000190: 2482 a1bd 672c e1bc 6a17 76bd 05f5 dcbd
000001a0: b30d 9a3c 028d 473d 0d23 7cbc b867 98bc
000001b0: 3472 883d 0287 e4bd 6f01 4ebd 227c 09be
000001c0: f472 193d 1728 dbbd 3399 ebbc 7a6f 43bd
000001d0: 8a6b 8c3c b9f3 b2bd 2fe4 68bd 6bcd 5e3c
000001e0: 4fc0 cabd fcb1 513d 8522 c6bd 25ea e03c
000001f0: df45 55bc e97e 323d bedc e3bd bcd2 62bd
00000200: 286b 25bc 6f05 173d eaad e3bd 9dc2 3abc
00000210: 7937 e9bb d800 e8bd aef1 ce3c e982 813b
00000220: 31d8 bcbd 82ca a1bb 7908 73bd d4a5 d039
00000230: 3327 7fbd 12fc 84bd aa52 933d 6074 173c
00000240: 0097 4cbd 6fa9 f3bc deb7 96bd 454a 65bd
00000250: 7952 c4bd e8f4 01bd ca5b eebb 18ba 8bbd
00000260: 4dde d13d 0803 a0bc 439a 4c3d 6d7d f63d
00000270: 8c50 a7bd d106 adbd eec9 393d 5e5f efbc
00000280: a522 42bd 0122 3d3d 86fc 57bd 6b3a 593d
00000290: 445f e13d 8f1a 033e 2451 eabd eae5 c7bd
000002a0: d6c8 263d c419 ddbc 85fe 753d f1b7 403c
000002b0: a2fb ea3c 040d 7d3c 194f a3bd 6db9 92bd
000002c0: 102b 0a3d 4076 933c ff7c 543c fb65 373d
000002d0: c49f 94bd 22b4 983d a8ea 4b3d d1f0 9c3d
000002e0: b0fe 6abd 0f2d ea3b d4d4 3bbc 012c e9bc
000002f0: 21bd f7bc c261 dfbd e262 bbbc e2d6 afbd
00000300: 71cb b13d 085f cdbb b0c9 f43d 43d2 0dbe
00000310: c08e ed3d 68cf b9bd 092d 21bc 2d96 a4bd
00000320: c9c0 483c 7bbe c8bd 90c4 58bd 8629 02be
00000330: 213a b43c c262 ecbb a478 d0bc fdaf 8d3d
00000340: ddc2 4e3d cd1c 3d3d f225 493d 29b5 07bc
00000350: f3d1 b5bd e795 703a 0fc9 833c bb48 933d
00000360: 4f57 ba3d ed60 f6bc 36cb 0fbd 64fd 9a3c
00000370: 50c4 08bd 8df6 d93d 8411 9e3d 4e81 cbbd
00000380: cd79 523c 8c46 b1bc 263a 87bc 502e b3bd
00000390: 693f 793c 63de 0a3d 1d02 1abc b9f8 4ebb
000003a0: 759e 49bd 235c 54bd ba5e 2dbd e55a 423d
000003b0: 51ed 8fbd 8100 373d 1c89 6cbb 22be 6a3c
000003c0: 33f8 623d 1bca f63c 7aa7 e9bd fc90 863d
000003d0: 02be 86bd b7d1 4abc 5649 d5bb 8ef0 a8bd
000003e0: c408 603d a9e1 993d 42de 4fbd 055d 5339
000003f0: 724b 78bb 2aa4 d9bc c65b ca3c 6119 3ebc

conv1.bias f4 [16]
-0.099464476 -0.031698138 0.05310075 0.09446097 -0.06665875 0.02912028 0.08223931 0.018169023
0.092749275 -0.0665434 0.006400492 0.07808807 0.09695354 -0.0001247798 -0.036003068 0.052609734
00000000: 08b4 cbbd e8d5 01bd 2c80 593d c174 c13d
00000010: 6284 88bd a78d ee3c 156d a83d 34d7 943c
00000020: 55f3 bd3d e847 88bd 38bb d13b a3ec 9f3d
00000030: 948f c63d 53d7 02b9 f477 13bd 4e7d 573d

conv2.weight f4 [32, 16, 3, 3]
-0.03297585 -0.05782868 0.030152295 0.008489162 -0.02823282 0.040394828 0.014799486 -0.078132756
0.02696064 -0.063803636 0.035958618 0.08012866 -0.039937988 0.062095016 -0.026844634 0.047706172
0.04090536 0.032156616 0.04336594 0.055693716 -0.07728165 -0.03934132 -0.079995155 -0.008386469
-0.016067311 -0.026224054 -0.043506175 -0.002384592 0.054265413 -0.017919704 -0.010651181 0.010036998
-0.010094306 -0.045416445 0.0073364177 0.024410784 0.06753855 -0.026019704 -0.06766051 0.0373517
-0.09874568 -0.05394186 -0.04703024 -0.0606653 0.05443341 0.018812928 -0.038742166 0.070597306
0.03239453 0.023634873 0.06128309 -0.03545544 0.060266025 -0.025244594 -0.03623568 -0.05723546
0.044487063 -0.020084746 -0.10747816 -0.029475147 -0.030247908 0.03078553 -0.025630206 -0.076773904
0.026723048 0.04458683 0.020221258 -0.097962976 0.015827058 -7.7920566e-05 -0.08025232 -0.104902335
-0.06927455 -0.029311433 -0.055809584 -0.01970721 -0.04141474 0.012227632 -0.06997873 -0.025810715
-0.033294126 -0.052911352 -0.057220977 -0.0987135 -0.041793857 -0.0634714 0.008312577 -0.040321358
-0.10656988 0.054872595 0.03312616 -0.077242576 -0.030516379 -0.006235661 -0.03419431 -0.012234493
-0.04269985 -0.034847178 0.048911497 -0.010076295 0.044993695 0.06712919 0.04491228 -0.0014768743
0.014295783 -0.034615092 0.049837492 0.019516777 -0.03480392 0.00036136736 0.013102812 -0.117714584
-0.060968846 -0.11367285 -0.020391969 -0.08482502 -0.054617595 -0.07176608 -0.07909916 0.019553551
0.0089958515 -0.08637456 -0.06564241 -0.01094312 -0.0023792326 0.0511261 -0.042554174 -0.069914125
-0.007909106 -0.08147659 0.031964246 0.022816174 0.037576992 -0.012001335 0.060050704 -0.0532782
-0.073740445 -0.050124854 0.04577953 -0.0851799 -0.05069398 -0.07469637 0.020295115 0.034044243
-0.017915532 -0.04576618 -0.00080125453 0.06030842 0.10632415 -0.011393981 0.035499103 -0.0047733253
0.026981436 -0.029017406 -0.01070177 0.093454026 0.014407745 0.04983309 -0.025358764 0.08329702
0.075282626 -0.04993023 -0.04099834 0.040157914 0.050245788 0.04765968 -0.0027919542 0.09194629
-0.0235559 0.08518994 0.052376203 0.006608319 0.012185409 0.092810474 -0.043715242 0.022979876
0.025733473 -0.0012020227 -0.0038144623 -0.005629943 0.0849615 0.019883558 0.04424466 -0.03718988
0.12756337 0.06926412 0.09117227 0.015722968 0.08459775 0.070500754 0.06446185 -0.0046659033
-0.016323574 -0.08586398 0.07229422 0.04219492 0.010800028 -0.05908905 0.022452291 0.061051793
-0.016104938 -0.0036886097 0.07395642 0.09564826 -0.033209592 0.103163056 -0.021075634 -0.014307873
-0.058833208 -0.025719995 -0.043209296 0.11970339 0.081967376 -0.05715919 0.0010592563 0.07276562
0.022109605 0.08858004 0.008153382 0.017286805 0.094997026 0.11663677 0.046059866 0.04240177
0.03125031 0.07776328 0.0873393 -0.04867936 0.040710732 0.08442762 0.07013733 0.05954476
-0.04245647 0.057385657 0.04311394 0.08054535 0.0037089207 -0.024136405 0.09238771 0.06776035
0.08076802 -0.043725643 -0.03949693 0.08618663 -0.0019419815 -0.022764293 -0.018876966 -0.033087097
-0.077443406 -0.05203606 -0.047058117 -0.0014910277 0.08824622 -0.041589484 0.0018759299 0.112761155
00000000: af11 07bd c4dd 6cbd f201 f73c 2016 0b3c
00000010: 8448 e7bc 0c75 253d 8b79 723c 1104 a0bd
00000020: 8fdc dc3c 7bab 82bd 5849 133d 7f1a a43d
00000030: 0496 23bd 5857 7e3d 47e9 dbbc 8c67 433d
00000040: 618c 273d a8b6 033d 7ca0 313d 181f 643d
00000050: d745 9ebd 5d24 21bd 80d4 a3bd 6767 09bc
00000060: 989f 83bc d4d3 d6bc 8833 32bd d146 1cbb
00000070: 6945 5e3d 58cc 92bc 4b82 2ebc 3972 243c
00000080: 9762 25bc 9806 3abd 5566 f03b 20f9 c73c
00000090: a751 8a3d 4627 d5bc 9891 8abd 19fe 183d
000000a0: 2d3b cabd 24f2 5cbd c8a2 40bd 2d7c 78bd
000000b0: 91f5 5e3d 921d 9a3c 1bb0 1ebd 5295 903d
000000c0: 20b0 043d ec9d c13c fa03 7b3d b939 11bd
000000d0: 82d9 763d c0cd cebc dd6b 14bd bb6f 6abd
000000e0: 1138 363d c488 a4bc 821d dcbd dd75 f1bc
000000f0: 76ca f7bc f031 fc3c 70f6 d1bc a33b 9dbd
00000100: 4bea da3c aea0 363d 0da7 a53c d0a0 c8bd
00000110: bfa7 813c 4969 a3b8 545b a4bd 09d7 d6bd
00000120: d1df 8dbd 881e f0bc 9798 64bd 0471 a1bc
00000130: 81a2 29bd 6856 483c 0251 8fbd fe70 d3bc
00000140: 6c5f 08bd 93b9 58bd 8b60 6abd 4e2a cabd
00000150: 0930 2bbd 4bfd 81bd 7a31 083c 0228 25bd
00000160: 4f41 dabd 16c2 603d 4caf 073d 5b31 9ebd
00000170: 7cfd f9bc 8454 ccbb 550f 0cbd 2f73 48bc
00000180: 0ae6 2ebd eabb 0ebd 6c57 483d 0b17 25bc
00000190: 4f4b 383d 077b 893d f0f5 373d ae93 c1ba
000001a0: dc38 6a3c 8ec8 0dbd 6622 4c3d a6e1 9f3c
000001b0: 8e8e 0ebd e875 bd39 2dad 563c 5814 f1bd
000001c0: 78ba 79bd 50cd e8bd 0f0d a7bc bdb8 adbd
000001d0: b3b6 5fbd 18fa 92bd befe a1bd c52e a03c
000001e0: 5663 133c 25e5 b0bd 876f 86bd c64a 33bc
000001f0: e6ec 1bbb 9a69 513d 494d 2ebd 232f 8fbd
00000200: 3295 01bc 33dd a6bd f1ec 023d fce8 ba3c
00000210: 55ea 193d 3fa1 44bc baf7 753d 3e3a 5abd
00000220: 3b05 97bd b84f 4dbd 5183 3b3d cd72 aebd
00000230: 7ea4 4fbd 69fa 98bd f141 a63c fa71 0b3d
00000240: 98c3 92bc 5175 3bbd 480b 52ba f605 773d
00000250: 7ac0 d93d d2ad 3abc 8267 113d 8e69 9cbb
00000260: 2c08 dd3c e9b5 edbc 7a56 2fbc d364 bf3d
00000270: 760e 6c3c c81d 4c3d 2fbd cfbc a197 aa3d
00000280: c72d 9a3d a483 4cbd e0ed 27bd a07c 243d
00000290: 87ce 4d3d cc36 433d 38f9 36bb 564e bc3d
000002a0: 4ef8 c0bc 1078 ae3d 6e88 563d 998a d83b
000002b0: 4fa5 473c 6b13 be3d c10e 33bd 4b40 bc3c
000002c0: 01cf d23c 308d 9dba 0ffc 79bb 637b b8bb
000002d0: 4b00 ae3d d8e2 a23c e339 353d 6a54 18bd
000002e0: f99f 023e 59da 8d3d 87b8 ba3d 74cd 803c
000002f0: 9641 ad3d b362 903d 9304 843d 6fe4 98bb
00000300: 04b9 85bc 74d9 afbd fe0e 943d 95d4 2c3d
00000310: 9af2 303c 5c07 72bd deed b73c 7211 7a3d
00000320: 81ee 83bc 9abc 71bb 7776 973d 3ce3 c33d
00000330: c806 08bd 2747 d33d cfa6 acbc 926b 6abc
00000340: 17fb 70bd bdb2 d2bc 3bfc 30bd 0d27 f53d
00000350: 83de a73d c11f 6abd bed6 8a3a 2406 953d
00000360: 341f b53c 7469 b53d c395 053c 0f9d 8d3c
00000370: cd8d c23d 42df ee3d 45a9 3c3d 7aad 2d3d
00000380: 5300 003d 5b42 9f3d f2de b23d 0264 47bd
00000390: 4cc0 263d 63e8 ac3d 29a4 8f3d 35e5 733d
000003a0: d6e6 2dbd 390d 6b3d 3e98 303d f6f4 a43d
000003b0: 5d11 733b b6b9 c5bc c535 bd3d f0c5 8a3d
000003c0: b469 a53d a919 33bd 88c7 21bd 9e82 b03d
000003d0: 168a feba 2f7c babc dea3 9abc 5686 07bd
000003e0: a69a 9ebd c323 55bd 03c0 40bd 966e c3ba
000003f0: 6fba b43d bc59 2abd c3e1 f53a 52ef e63d

conv2.bias f4 [32]
0.058164768 0.03233224 0.0044842665 0.043903373 -0.061134085 -0.059212983 0.00033901492 -0.036312893
0.053431194 -0.020071035 0.013778015 -0.014856001 0.013963818 0.07627342 0.06388421 0.01179289
0.083270915 0.0010576078 -0.02205853 0.07817212 0.06472332 0.05048177 0.011380633 -0.04144283
0.08386881 0.05063865 0.07765346 -0.03849363 0.025393084 -0.08301942 -0.024607621 -0.048113227
00000000: 2e3e 6e3d d06e 043d c1f0 923b 06d4 333d
00000010: bc67 7abd 5089 72bd d0bd b139 d4bc 14bd
00000020: abda 5a3d 036c a4bc 2fbd 613c 9666 73bc
00000030: 7fc8 643c 3d35 9c3d bad5 823d f736 413c
00000040: f189 aa3d 6e9f 8a3a 17b4 b4bc b418 a03d
00000050: a98d 843d f9c5 4e3d d675 3a3c f5bf 29bd
00000060: 69c3 ab3d 796a 4f3d c708 9f3d 7fab 1dbd
00000070: 2805 d03c 1606 aabd ec95 c9bc 6012 45bd

conv3.weight f4 [64, 32, 3, 3]
-0.029504467 0.025880672 -0.036605444 -0.050277244 -0.04590721 -0.060417164 0.0043296292 0.037753217
-0.045924235 -0.049391396 -0.03799838 -0.023114214 -0.040560383 0.048271384 0.029303547 0.03699603
0.05128209 -0.01909878 -0.039495166 -0.051630106 -0.049378145 -0.028988162 0.010912682 -0.006974133
0.04511954 0.0034818973 0.017777639 0.019493034 -0.050407045 -0.03274939 0.047234446 0.08014739
0.028303694 -0.02172654 -0.05652143 0.00018449471 -0.0454568 0.02321013 -0.016347615 -0.05245677
0.05141062 0.08045551 -0.027972635 -0.02327367 0.00077098596 0.021479942 0.064112075 0.07580657
-0.0065361797 -0.060651574 -0.018030629 -0.035452425 -0.007392947 -0.016136797 0.065879494 0.00786351
0.020106656 0.011835638 0.0043170913 -0.05015533 0.014738953 0.030543938 0.0188275 -0.046022113
0.0028029622 -0.063112974 -0.027590172 0.019954246 -0.017703455 -0.007376277 0.044786017 -0.031378713
-0.033291142 -0.015494581 0.04675014 -0.022528503 0.0035175604 0.003182762 -0.016389342 0.004557524
-0.005607328 0.0219785 0.0022823657 0.038992364 0.029628364 0.041671995 0.029181272 0.01222937
-0.036117308 -0.027030958 -0.008110689 0.012082551 0.043031447 -0.0031621573 0.011050431 -0.01808792
0.042442214 0.07210317 0.05455141 0.04630361 0.052199155 -0.050020255 -0.03653524 -0.02795937
0.021797964 0.010629581 0.03492079 0.07427604 -0.051458042 0.03146663 0.042133898 0.014900061
-0.027239427 -0.048378896 0.024905177 0.050601494 -0.059685085 0.052362327 -0.005254251 -0.01965886
-0.009914 0.010246592 -0.0044069267 0.023796922 -0.028497988 0.063109934 0.05312734 -0.0052133175
0.05732639 0.008974493 0.06943888 0.022070277 -0.03811703 0.0012831874 -0.03882821 0.03872915
0.005672317 0.063743 0.060167737 0.06328115 -0.025639616 0.027942507 -0.016464053 0.019879695
-0.032119513 0.03215913 0.07120752 0.06660747 0.068843685 0.039797988 0.060123198 0.03624951
-0.027128525 0.05760673 0.09832433 0.003383602 0.058928866 0.0052925576 -0.034660336 0.06885847
0.068399094 -0.048103545 -0.008280606 -0.021005884 -0.00062215043 -0.03504437 0.08563171 0.029600972
-0.0714778 -0.02279386 0.05370933 -0.019316483 -0.05167157 -0.051537357 -0.00027632574 0.0330057
0.009417049 0.04092395 0.040980738 0.017642066 -0.019259047 0.012943545 -0.029728148 0.03947672
0.028999133 -0.04284232 0.07056694 0.007103762 0.07529369 -0.027141023 -0.067941606 -0.015830286
0.020208422 0.02238269 0.06375938 -0.06123916 -0.019578025 0.04169302 -0.012759605 0.032868557
-0.03146696 0.013536303 0.03589098 0.02266032 0.03903404 0.016797526 -0.010135893 0.021532668
-0.00443395 -0.026434354 -0.030090505 0.002219589 0.06484099 -0.043861933 0.04105695 -0.028803363
-0.013261811 -0.06387635 0.041812215 -0.043423645 0.03418214 0.053899802 0.015933767 -0.018111682
0.016885186 -0.044870466 -0.039807446 -0.06501795 0.042473104 -0.0100520365 0.05874397 -0.014345555
0.004452532 -0.012093904 -0.025204534 -0.043265693 -0.04018261 -0.05503333 0.06660451 0.033120718
0.0102569405 -0.026049977 -0.01193713 0.052935377 0.07827807 0.064585246 0.037972137 -0.014828577
0.041974224 -0.0054408675 0.023815086 0.059764866 -0.0056519182 -0.061566945 -0.046338614 0.035848904
00000000: 5ab3 f1bc b403 d43c 97ef 15bd 83ef 4dbd
00000010: 3309 3cbd fd77 77bd 90df 8d3b 1ea3 1a3d
00000020: 0d1b 3cbd a24e 4abd 30a4 1bbd 055a bdbc
00000030: a522 26bd 37b8 453d fe0d f03c 2689 173d
00000040: 2b0d 523d 0b75 9cbc afc5 21bd 177a 53bd
00000050: bd40 4abd 9578 edbc 1bcb 323c 4587 e4bb
00000060: 44cf 383d 8b30 643b 69a2 913c dbaf 9f3c
00000070: 9e77 4ebd 3924 06bd e878 413d 5124 a43d
00000080: 26dd e73c dbfb b1bc 0483 67bd ec74 4139
00000090: e930 3abd 2c23 be3c 6feb 85bc e9dc 56bd
000000a0: f193 523d dcc5 a43d de26 e5bc 6ca8 bebc
000000b0: fe1b 4a3a b4f6 af3c 314d 833d 7a40 9b3d
000000c0: 732d d6bb c96d 78bd f8b4 93bc 9036 11bd
000000d0: 8940 f2bb 5131 84bc d4eb 863d f4d5 003c
000000e0: b7b6 a43c 44ea 413c 6376 8d3b ad6f 4dbd
000000f0: a67b 713c 4837 fa3c 213c 9a3c af81 3cbd
00000100: e7b1 373b 6041 81bd c904 e2bc 1677 a33c
00000110: d606 91bc b2b4 f1bb 8b71 373d f786 00bd
00000120: 4b5c 08bd fcdc 7dbc 137d 3f3d b28d b8bc
00000130: df86 663b e395 503b f142 86bc 4857 953b
00000140: adbd b7bb 410c b43c be93 153b 75b6 1f3d
00000150: 2fb7 f23c 41b0 2a3d 900d ef3c b25d 483c
00000160: beef 13bd 0770 ddbc b2e2 04bc e4f5 453c
00000170: be41 303d 323c 4fbb de0c 353c 1e2d 94bc
00000180: e3d7 2d3d d4aa 933d 4d71 5f3d dba8 3d3d
00000190: c8ce 553d 0ae2 4cbd faa5 15bd 0c0b e5bc
000001a0: a591 b23c b227 2e3c 1a09 0f3d 091e 983d
000001b0: abc5 52bd 27e3 003d 9894 2c3d 631f 743c
000001c0: 3825 dfbc f328 46bd f105 cc3c 8343 4f3d
000001d0: 5978 74bd e179 563d da2b acbb 9e0b a1bc
000001e0: 546e 22bc 52e1 273c fb67 90bb c3f1 c23c
000001f0: 9d74 e9bc c83f 813d 0e9c 593d 7ad4 aabb
00000200: 14cf 6a3d c009 133c f935 8e3d bacc b43c
00000210: 9a20 1cbd a030 a83a 540a 1fbd 75a2 1e3d
00000220: d8de b93b b18b 823d 7272 763d 8c99 813d
00000230: 2c0a d2bc afe7 e43c 9fdf 86bc beda a23c
00000240: c08f 03bd 4bb9 033d 40d5 913d 7f69 883d
00000250: ebfd 8c3d 3703 233d be43 763d 5e7a 143d
00000260: a43c debc 09f5 6b3d 445e c93d 6cbf 5d3b
00000270: 655f 713d 316d ad3b fff7 0dbd ab05 8d3d
00000280: d314 8c3d 3908 45bd 61ab 07bc 8814 acbc
00000290: cf17 23ba af8a 0fbd ae5f af3d bd7d f23c
000002a0: f462 92bd 30ba babc 50fe 5b3d 9a3d 9ebc
000002b0: 91a5 53bd d618 53bd d0df 90b9 fc30 073d
000002c0: f749 1a3c df9f 273d 6bdb 273d 1886 903c
000002d0: 26c5 9dbc 2a11 543c 7288 f3bc 57b2 213d
000002e0: 978f ed3c 6e7b 2fbd 6685 903d adc6 e83b
000002f0: 9433 9a3d da56 debc f824 8bbd 84ae 81bc
00000300: 228c a53c e75b b73c 4794 823d ead5 7abd
00000310: 1862 a0bc 4dc6 2a3d aa0d 51bc 2ea1 063d
00000320: 80e3 00bd 5fc7 5d3c 6c02 133d 23a2 b93c
00000330: 28e2 1f3d f79a 893c 0411 26bc 4765 b03c
00000340: ab4a 91bb dc8c d8bc 5d80 f6bc 8676 113b
00000350: 5acb 843d 92a8 33bd 552b 283d 08f5 ebbc
00000360: 1148 59bc 9bd1 82bd 4943 2b3d fedc 31bd
00000370: 9202 0c3d 0ac6 5c3d 8887 823c f35e 94bc
00000380: cd52 8a3c 18ca 37bd 220d 23bd 2228 85bd
00000390: 47f8 2d3d 4cb1 24bc 849d 703d 9e09 6bbc
000003a0: 8ce6 913b 8325 46bc bd79 cebc 5e37 31bd
000003b0: 8596 24bd a16a 61bd f267 883d 97a9 073d
000003c0: ba0c 283c c366 d5bc f493 43bc c4d2 583d
000003d0: 4150 a03d 4545 843d ac88 1b3d 8ff3 72bc
000003e0: 2aed 2b3d 4e49 b2bb db17 c33c 01cc 743d
000003f0: ba33 b9bb 9f2d 7cbd 8fcd 3dbd 4dd6 123d

conv3.bias f4 [64]
0.021783471 -0.052308835 -0.05988866 0.0006992348 -0.008080463 0.073924996 -0.049530055 -0.039610878
0.051150113 0.00024219874 -0.030707823 -0.070119865 0.0071174395 0.002363598 0.048985753 0.037127126
0.025173593 -0.03511685 -0.00262613 -0.033628944 0.03093975 -0.01949626 0.030287493 0.015569406
0.03555413 -0.026170839 -0.06563786 0.0106051 0.014867013 -0.0075937994 -0.0716443 -0.016688308
-0.06668208 0.045055978 0.014007328 -0.0641579 -0.024889437 0.02466383 0.03652653 -0.0033572135
-0.03422586 0.040530395 0.050019078 0.054576796 0.03112097 -0.010380183 0.0075139273 0.008507905
0.06543922 0.043452084 0.019715171 0.030934658 -0.05062533 0.011434185 -0.043686375 0.007998276
-0.0067240526 -0.052799027 0.054853406 -0.0665828 0.025335684 0.0057631256 -0.019294864 0.06931637
00000000: 4073 b23c ca41 56bd d04d 75bd da4c 373a
00000010: eb63 04bc fd65 973d 07e0 4abd 043f 22bd
00000020: c882 513d bbf6 7d39 f98e fbbc 019b 8fbd
00000030: 6939 e93b 98e6 1a3b 49a5 483d 9d12 183d
00000040: da38 ce3c b0d6 0fbd 261b 2cbb 81be 09bd
00000050: 5c75 fd3c 9fb6 9fbc 7a1d f83c d216 7f3c
00000060: 35a1 113d 3a64 d6bc 246d 86bd 03c1 2d3c
00000070: c694 733c 68d5 f8bb 3fba 92bd ebb5 88bc
00000080: 9d90 88bd 9e8c 383d fe7e 653c 3865 83bd
00000090: efe4 cbbc cd0b ca3c d89c 153d b204 5cbb
000000a0: 6a30 0cbd 3303 263d cee0 4c3d eb8b 5f3d
000000b0: 68f1 fe3c a511 2abc 6437 f63b bd64 0b3c
000000c0: ff04 863d d0fa 313d b681 a13c ae6a fd3c
000000d0: 825c 4fbd 7356 3b3c 7cf0 32bd 330b 033c
000000e0: 7155 dcbb cb43 58bd f7ad 603d 905c 88bd
000000f0: c88c cf3c 9ad8 bc3b 4310 9ebc bef5 8d3d

conv4.weight f4 [64, 64, 3, 3]
0.016846087 -0.037592508 -0.036361713 -0.014724287 0.013357153 -0.019724496 0.0384113 -0.030714573
-0.045873694 -0.019345766 -0.01869446 -0.020072404 -0.036996484 -0.03845173 -0.023649685 -0.0267135
-0.022807851 0.035506424 0.016796311 -0.017994905 -0.022859542 -0.018652044 0.017516883 0.0040451637
-0.010655269 0.0058522243 -0.0046748864 0.0020950527 0.030867565 -0.03057376 -0.010392522 0.042041566
0.0013267093 0.031066012 0.041950125 0.017840456 -0.005507961 -0.017174523 0.0019352217 -0.00052301557
-0.029010845 0.021278463 0.025791068 -0.024607094 -0.027547149 0.008050715 -0.026352823 -0.008068413
0.02672641 0.020663036 -0.004068649 -0.037073527 -0.028253457 0.016417501 -0.018879985 -0.032410603
0.03803957 0.05114723 0.018414594 0.044216365 0.02527031 0.0073494567 0.049231764 -0.010230201
-0.0010267881 -0.034496684 0.025352048 -0.022049531 -0.018672492 -0.012425427 -0.016802417 -0.05557798
0.011329597 -0.007870898 0.0044185277 0.01818621 -0.0041660685 -0.028938299 -0.02904504 -0.040254645
-0.008285057 -0.0033810055 0.011158911 0.009324929 0.056304883 0.064888254 -0.019561779 0.052555896
-0.036395352 0.0026360243 0.0149031235 -0.0066190693 -0.04322017 -0.023028182 0.0016899535 -0.026258491
0.040858664 -0.018682562 0.046979655 0.031251974 -0.029622087 0.024768233 -0.038129695 -0.015926497
-0.013232369 0.027295576 -0.031546667 0.0037292645 0.007811972 0.03627931 -0.0072176107 0.03355691
-0.02582855 0.0010893292 -0.043766707 -0.04561155 -0.003230741 0.04337782 0.04880746 0.03854152
0.036900397 0.027121006 0.01076912 0.039689954 0.011659394 -0.053238913 -0.022816136 0.027529938
0.025370054 0.040063217 -0.0066112173 0.026269581 0.01211541 -0.0030168176 -0.041239545 -0.041838262
0.014256526 0.012039856 -0.018793283 0.001609394 0.021348562 -0.020005878 -0.011097593 0.024009055
-0.03150248 0.025967816 0.04317631 0.02694518 0.0052583823 0.0107068345 0.02125565 -0.007928235
0.0073222825 0.0009529602 0.03224566 -0.04161668 -0.042646248 0.00030124627 0.033835627 0.025790066
-0.031304017 0.01194482 -0.030531008 0.016698616 -0.02972632 -0.013587346 -0.05317316 -0.04786161
-0.03970856 -0.053032387 0.0188687 -0.03866693 0.00014796878 0.022985054 0.008663392 0.007202021
0.0024043862 -0.018479282 -0.012714509 0.0054054847 0.015395465 0.033583082 0.018842993 -0.012166236
0.0050769947 -0.032304417 -0.0011772651 0.004182678 -0.00038263504 -0.04209907 0.00025437804 -0.014115053
-0.03549087 0.026521988 0.022987124 -0.02212932 0.024176616 0.017908627 0.023926858 -0.024451848
0.016983142 -0.02824184 -0.022942875 -0.004800541 0.032047044 0.011727153 0.043446593 -0.0044184336
0.019253962 -0.0049941656 -0.023294669 -0.022206463 0.017801976 -0.024308741 0.016337585 -0.044837955
0.021118663 0.0072241663 -0.0403578 0.02786476 -0.032823145 0.02245049 0.020406777 0.016736908
-0.024732111 0.042691085 -0.011803798 0.010833359 0.043649893 -0.030264352 -0.023797506 0.0033550428
-0.06065302 -0.052340303 0.04006422 0.003969093 -0.007747434 -0.0010021818 0.04413011 0.007735227
0.017068865 0.01530214 -0.00877668 -0.05561878 0.01725484 -0.042740867 -0.023581656 0.0030567967
-0.04181169 -0.023006324 -0.013240795 -0.011701383 -0.0019923507 -0.031401422 -0.0008588325 -0.010778171
00000000: ce00 8a3c 9afa 19bd 05f0 14bd 233e 71bc
00000010: f6d7 5a3c 4495 a1bc 2b55 1d3d 219d fbbc
00000020: 0ee6 3bbd 037b 9ebc 2025 99bc e26e a4bc
00000030: a089 17bd 907f 1dbd fcbc c1bc 45d6 dabc
00000040: 88d7 babc 2f6f 113d 6b98 893c 0d6a 93bc
00000050: ef43 bbbc 2ccc 98bc 917f 8f3c 4b8d 843b
00000060: 7093 2ebc 04c4 bf3b ca2f 99bb 274d 093b
00000070: fadd fc3c d275 fabc 6645 2abc c733 2c3d
00000080: fae4 ad3a 267e fe3c e5d3 2b3d 2626 923c
00000090: 207c b4bb 96b1 8cbc 44a7 fd3a fb1a 09ba
000000a0: 27a8 edbc 2c50 ae3c ca47 d33c d194 c9bc
000000b0: 8faa e1bc 25e7 033c e0e1 d7bc 6031 04bc
000000c0: 58f1 da3c 8745 a93c 4d52 85bb 69da 17bd
000000d0: cb73 e7bc ff7d 863c 33aa 9abc fbc0 04bd
000000e0: 61cf 1b3d c27f 513d 34da 963c 381c 353d
000000f0: ae03 cf3c b6d3 f03b 3fa7 493d 939c 27bc
00000100: 4b95 86ba 654c 0dbd 19af cf3c 38a1 b4bc
00000110: 0ef7 98bc 0594 4bbc 39a5 89bc bca5 63bd
00000120: c69f 393c f0f4 00bc 4cc9 903b 3ffb 943c
00000130: 8483 88bb 0310 edbc ddef edbc 0ee2 24bd
00000140: 0cbe 07bc dc93 5dbb ddd3 363c 96c7 183c
00000150: f39f 663d 22e4 843d 0640 a0bc da44 573d
00000160: 4b13 15bd 26c1 2c3b 3b2c 743c c7e4 d8bb
00000170: a207 31bd 99a5 bcbc 6e81 dd3a 0c1c d7bc
00000180: 6a5b 273d 2c0c 99bc bd6d 403d 1202 003d
00000190: 05aa f2bc c0e6 ca3c e22d 1cbd 4978 82bc
000001a0: 94cc 58bc f99a df3c 1437 01bd ad66 743b
000001b0: 92fb ff3b 9d99 143d b581 ecbb f872 093d
000001c0: 6596 d3bc d3c7 8e3a b844 33bd 2dd3 3abd
000001d0: d7ba 53bb f1ac 313d 55ea 473d b6dd 1d3d
000001e0: df24 173d df2c de3c f770 303c ef91 223d
000001f0: 0b07 3f3c 0c11 5abd e8e8 babc 7786 e13c
00000200: dcd4 cf3c 5419 243d e9a2 d8bb 4e33 d73c
00000210: b67f 463c cdb5 45bb ccea 28bd 995e 2bbd
00000220: 3494 693c d142 453c 5ff4 99bc 4df2 d23a
00000230: 2ee3 ae3c 5ee3 a3bc aed2 35bc a3ae c43c
00000240: bf08 01bd 75ba d43c a4d9 303d 23bc dc3c
00000250: 824e ac3b b86b 2f3c 5420 ae3c 6ee5 01bc
00000260: c2ef ef3b 14d0 793a 0614 043d 4076 2abd
00000270: d5ad 2ebd 97f0 9d39 3a97 0a3d b045 d33c
00000280: a438 00bd 35b4 433c 2a1c fabc 89cb 883c
00000290: 9d84 f3bc 769d 5ebc 19cc 59bd 890a 44bd
000002a0: 71a5 22bd 7d38 59bd 8892 9a3c 3761 1ebd
000002b0: 1128 1b39 274b bc3c e6f0 0d3c eefe eb3b
000002c0: e892 1d3b dd61 97bc 8450 50bc 7e20 b13b
000002d0: 433d 7c3c 6a8e 093d 9f5c 9a3c e454 47bc
000002e0: eb5c a63b a351 04bd 764e 9aba d90e 893b
000002f0: 689c c8b9 1370 2cbd 0b5e 8539 d342 67bc
00000300: e05e 11bd a444 d93c 7e4f bc3c 8c48 b5bc
00000310: 0a0e c63c 1db5 923c 4202 c43c 3e4f c8bc
00000320: 3b20 8b3c 6e5b e7bc b2f2 bbbc db4d 9dbb
00000330: c343 033d 3f23 403c 0ef5 313d 82c8 90bb
00000340: 7cba 9d3c 19a6 a3bb 76d4 bebc 54ea b5bc
00000350: 73d5 913c 2023 c7bc 66d6 853c 01a8 37bd
00000360: 0c01 ad3c b3b8 ec3b 384e 25bd a344 e43c
00000370: 9071 06bd 17ea b73c 1d2c a73c d71b 893c
00000380: ff9a cabc d9dc 2e3d b864 41bc 677e 313c
00000390: 3bca 323d f2ec f7bc fdf2 c2bc 47e0 5b3b
000003a0: 4d6f 78bd c962 56bd 611a 243d 2a0f 823b
000003b0: 30de fdbb a45b 83ba c6c1 343d c977 fd3b
000003c0: 01d4 8b3c d4b5 7a3c 10cc 0fbc 85d0 63bd
000003d0: 065a 8d3c 0c11 2fbd 512e c1bc 8a54 483b
000003e0: bc42 2bbd c277 bcbc ebef 58bc 28b7 3fbc
000003f0: 1992 02bb c79e 00bd 4623 61ba ed96 30bc

conv4.bias f4 [64]
0.026576862 0.047378667 -0.024272077 0.020030623 0.052310165 -0.035168532 0.03818405 -0.0017217386
0.011751001 -0.03889507 -0.020343045 -0.03154678 0.05312777 -0.001856689 0.06283962 -0.021060428
0.025722697 0.026138024 0.01886798 -0.026291497 -0.032256495 -0.023616577 0.04259565 0.00646938
0.028089488 -0.03500364 0.02588901 -0.031757537 0.015714142 0.019533582 0.018360052 -0.050622597
0.0468022 0.0053506265 0.023051193 0.012816268 0.030728415 -0.0059589795 -0.046630308 0.05432516
0.0924779 0.047640905 0.040297475 0.024025386 0.011032094 0.06985307 0.014508227 0.017567934
0.06848368 0.041613467 0.021927461 0.034962792 -0.05104661 0.030551862 -0.042445797 0.015070705
0.011295757 0.03485721 0.027799346 0.039080996 -0.03867603 -0.047189157 -0.043590456 -0.0037861643
00000000: b8b7 d93c 2210 423d 3cd6 c6bc 4317 a43c
00000010: 2f43 563d e10c 10bd e166 1c3d f6ab e1ba
00000020: 4587 403c 7050 1fbd 75a6 a6bc 3237 01bd
00000030: 819c 593d 255c f3ba 0fb2 803d eb86 acbc
00000040: 68b8 d23c 691f d63c 0691 9a3c 4461 d7bc
00000050: 631f 04bd 8d77 c1bc c778 2e3d 18fd d33b
00000060: ed1b e63c fa5f 0fbd 3015 d43c 3114 02bd
00000070: f2ba 803c e404 a03c d267 963c a459 4fbd
00000080: aab3 3f3d 4f54 af3b dbd5 bc3c 53fb 513c
00000090: 28ba fb3c 8b43 c3bb 6cff 3ebd 0f84 5e3d
000000a0: 0e65 bd3d 1c23 433d f70e 253d e3d0 c43c
000000b0: f5bf 343c 200f 8f3d eab3 6d3c a1ea 8f3c
000000c0: 2c41 8c3d e272 2a3d 38a1 b33c 2535 0f3d
000000d0: 4016 51bd e647 fa3c a5db 2dbd 1eeb 763c
000000e0: d711 393c 6fc6 0e3d 74bb e33c 6513 203d
000000f0: c26a 1ebd 6b49 41bd e88b 32bd 4c21 78bb

fc1.weight f4 [64, 256]
-0.049917024 0.01803836 0.009904508 0.012540874 0.052149937 0.055146556 0.068089016 0.031503297
-0.02152511 -0.045696247 -0.0353506 0.020070873 0.018867746 0.018702084 0.062077384 0.035789117
-0.007791178 0.04602742 -0.028087044 0.03021832 0.0030648608 0.033156928 0.047024965 -0.066897884
-0.0045513236 0.018078221 -0.008653706 0.023627859 -0.053305194 -0.011958563 0.049685705 0.07530123
-0.014255488 -0.007917666 -0.06513543 0.004389202 0.04864755 0.025880052 0.0065331263 0.06807605
0.0011489495 -0.032048073 -0.04032164 -0.013200587 -0.032969944 -0.05089748 -0.06758283 -0.00885012
0.0030849196 -0.017643962 -0.031084318 0.04226522 0.031893745 0.04235998 -0.05748721 -0.067703426
-0.023188762 -0.07060798 0.05399806 0.01683435 0.07524371 0.047158454 0.036557876 -2.3165368e-05
-0.037864152 0.03143708 0.05671337 0.0694249 0.062708735 0.027958103 -0.031524494 -0.034550086
0.04949089 -0.018277392 -0.007734831 -0.047304638 0.024042923 0.012911127 0.03420977 0.06332904
-0.026800998 0.019201603 -0.058542334 0.04614017 -0.016266897 0.075158894 -0.022763262 -0.0647689
0.00083034206 0.030009987 0.034907274 0.037138052 0.04866887 0.069050245 -0.048165236 -0.029433701
0.031859696 -0.00013481366 -0.08090033 0.0131691005 0.06600232 -0.020033542 -0.04460714 -0.06157833
-0.02340872 -0.07407648 0.059014883 0.0191641 0.06688662 -0.029972045 0.009069648 0.06773567
-0.048645318 -0.005302606 0.003584807 -0.01446692 -0.00669972 0.042021606 -0.017743476 -0.04263573
0.054534614 0.050585665 0.04735408 0.09869065 0.031213911 0.059013564 -0.01942621 -0.044935916
0.011986434 0.003770775 0.07301386 -0.018351745 -0.02139387 0.042126093 -0.0025023015 -0.03131304
-0.03821624 0.009184265 0.018390806 -0.00085249916 0.027840674 0.0006401816 -0.001913768 -0.014669099
0.05777708 0.054468192 -0.06202133 0.04751312 -0.012755759 0.0326949 0.026914665 0.044618845
0.040164694 0.08356408 0.019019611 0.013499032 0.023357863 0.029540315 0.021222787 0.016849736
-0.07511145 -0.05989243 -0.035407417 -0.0039516976 0.017060151 0.0008039057 -0.001530921 0.071944535
-0.071750246 -0.049250133 0.002338059 0.06490322 0.002431096 0.057342656 -0.030306391 0.056672342
0.0017645969 -0.012948988 0.06296279 -0.03446486 0.024058137 0.010408185 0.040006116 -0.035906404
-0.011202266 -0.021781418 0.057408154 0.068439245 0.048283394 -0.05349129 0.04006696 -0.020729288
0.057589013 0.024354031 -0.026760668 -0.09728995 0.01444053 -0.061401937 -0.0092049595 -0.008227114
0.027929673 -0.0153261935 0.055596106 -0.028458025 0.03597801 -0.010376461 -0.041807044 -0.010492697
0.055389706 0.06497687 -0.016571745 -0.043071385 -0.06293978 0.063137874 -0.03211446 0.051707514
0.053007472 0.07780507 -0.062022824 0.024805538 -0.061590046 0.055921882 0.0759793 0.0768734
-0.030845243 0.03542083 0.08342767 -0.02633905 0.023314808 -0.052837092 -0.03163443 -0.0055774744
-0.012778136 0.012974188 -0.03835983 0.07179083 0.031351764 0.041267164 0.07102936 0.048789266
0.06022367 0.028882481 0.0463571 0.02851135 -0.0034010108 0.003999266 0.046987206 -0.028232075
0.07722219 0.0775471 0.046408653 0.01560332 0.041805178 0.052776076 -0.06413992 0.003971588
00000000: cb75 4cbd 2fc5 933c 8446 223c 3d78 4d3c
00000010: 2c9b 553d 5be1 613d 4172 8b3d 9a09 013d
00000020: 6d55 b0bc fd2b 3bbd cacb 10bd ac6b a43c
00000030: 8890 9a3c 1d35 993c db44 7e3d 9c97 123d
00000040: 234d ffbb 3f87 3c3d cd16 e6bc 698c f73c
00000050: d5db 483b 8fcf 073d 409d 403d c201 89bd
00000060: 4523 95bb c718 943c 46c8 0dbc 368f c13c
00000070: 8c56 5abd d9ed 43bc 3d83 4b3d 8837 9a3d
00000080: da8f 69bc 19b9 01bc b965 85bd 4cd3 8f3b
00000090: a742 473d 6702 d43c d613 d63b 756b 8b3d
000000a0: 5998 963a d744 03bd 4e28 25bd 4647 58bc
000000b0: 7e0b 07bd e079 50bd de68 8abd 1800 11bc
000000c0: 5d2c 4a3b 128a 90bc 8aa4 febc 4c1e 2d3d
000000d0: 04a3 023d a981 2d3d b577 6bbd 18a8 8abd
000000e0: 5cf6 bdbc eb9a 90bd 122d 5d3d 31e8 893c
000000f0: 6019 9a3d 3929 413d b6bd 153d 4053 c2b7
00000100: 7117 1bbd 2bc4 003d 474c 683d a42e 8e3d
00000110: 706d 803d 6408 e53c d41f 01bd 6484 0dbd
00000120: f6b6 4a3d 78ba 95bc 7774 fdbb 82c2 41bd
00000130: aaf5 c43c 3189 533c 8b1f 0c3d a8b2 813d
00000140: c48d dbbc ae4c 9d3c 16ca 6fbd 7afd 3c3d
00000150: 2842 85bc e8ec 993d 057a babc 8fa5 84bd
00000160: 50ab 593a 81d7 f53c eefa 0e3d 121e 183d
00000170: 0259 473d 376a 8d3d e948 45bd f21e f1bc
00000180: 507f 023d c45c 0db9 12af a5bd 36c3 573c
00000190: 392c 873d 621d a4bc fab5 36bd 8f39 7cbd
000001a0: a5c3 bfbc 69b5 97bd 97b9 713d 08fe 9c3c
000001b0: dafb 883d ef87 f5bc dc98 143c 00b9 8a3d
000001c0: 5040 47bd 7cc1 adbb 15ef 6a3b a906 6dbc
000001d0: 5389 dbbb d91e 2c3d c45a 91bc cea2 2ebd
000001e0: b05f 5f3d ea32 4f3d 5af6 413d 531e ca3d
000001f0: 51b4 ff3c 35b8 713d b723 9fbc b90e 38bd
00000200: c062 443c 1b1f 773b 4a88 953d 6656 96bc
00000210: 3242 afbc 698c 2c3d a7fd 23bb 1a42 00bd
00000220: a288 1cbd 9979 163c 51a8 963c 407a 5fba
00000230: 2012 e43c dcd1 273a 66d7 faba a956 70bc
00000240: a9a7 6c3d 0a1a 5f3d 140a 7ebd 1e9d 423d
00000250: 88fd 50bc 16eb 053d 257c dc3c 40c2 363d
00000260: bc83 243d a523 ab3d 04cf 9b3c 0b2b 5d3c
00000270: fd58 bf3c 88fe f13c 69db ad3c 7508 8a3c
00000280: 08d4 99bd c451 75bd 5e07 11bd 3e7d 81bb
00000290: bbc1 8b3c 33bd 523a 2fa9 c8ba a857 933d
000002a0: cbf1 92bd 82ba 49bd 1f3a 193b fbeb 843d
000002b0: 0653 1f3b 22e0 6a3d 1c45 f8bc 4221 683d
000002c0: 0c4a e73a fe27 54bc a3f2 803d 062b 0dbd
000002d0: 9215 c53c 1887 2a3c 74dd 233d 9812 13bd
000002e0: b689 37bc f26e b2bc d024 6b3d e029 8c3d
000002f0: cfc4 453d af19 5bbd 411d 243d 78d0 a9bc
00000300: 75e2 6b3d 1b82 c73c 3039 dbbc f43f c7bd
00000310: f997 6c3c 9980 7bbd 66d0 16bc 04cb 06bc
00000320: c5cc e43c b71a 7bbc beb8 633d ce20 e9bc
00000330: ae5d 133d 0802 2abc dd3d 2bbd 90e9 2bbc
00000340: 51e0 623d 9812 853d 78c1 87bc 9f6b 30bd
00000350: 92e6 80bd 6e4e 813d 748a 03bd 42cb 533d
00000360: 5d1e 593d 4458 9f3d a50b 7ebd fc34 cb3c
00000370: d845 7cbd 580e 653d 099b 9b3d cd6f 9d3d
00000380: 2aaf fcbc 6f15 113d 20dc aa3d fec4 d7bc
00000390: b2fe be3c b56b 58bd 1b93 01bd 3fc3 b6bb
000003a0: 635b 51bc b091 543c 321f 1dbd 1207 933d
000003b0: b56a 003d c207 293d d777 913d 41d7 473d
000003c0: 18ad 763d f49a ec3c f1e0 3d3d a290 e93c
000003d0: 7ee3 5ebb 460c 833b a875 403d f446 e7bc
000003e0: ab26 9e3d 04d1 9e3d 0017 3e3d 11a5 7f3c
000003f0: e83b 2b3d ba2b 583d ca5b 83bd 1824 823b

fc1.bias f4 [64]
-0.006039832 -0.011935499 0.0010749756 0.017443221 0.031257994 0.0019747596 0.060632017 0.043079928
-0.02655246 0.033658877 -0.035501555 0.041960128 0.04740542 -0.06064472 -0.053114187 -0.077727005
-0.018789459 -0.013745162 0.027653905 0.012416984 -0.06280996 0.0064386427 -0.033281755 0.015688568
-0.049600717 0.02743509 -0.025339939 -0.046987582 -0.06730058 0.010947478 -0.043814976 -0.042198982
-0.0357614 0.07372468 0.061468616 -0.062153485 0.020301215 0.027969006 0.065613 0.031078367
-0.018536143 0.0047935024 0.041695073 -0.043261547 -0.05231955 0.02701606 -0.0061656046 -0.003950295
-0.053172313 -0.008252429 -0.076526225 0.035056427 0.02121121 0.049595255 -0.0041833622 -0.025986062
0.073118754 -0.023140408 0.03874351 0.012678924 0.058238447 0.026869487 -0.048701923 0.02635583
00000000: c8e9 c5bb 1c8d 43bc 32e6 8c3a 16e5 8e3c
00000010: 6208 003d f86a 013b 4759 783d 9474 303d
00000020: 8b84 d9bc e4dd 093d 146a 11bd 62de 2b3d
00000030: 302c 423d 9966 78bd 438e 59bd 562f 9fbd
00000040: 5aec 99bc 6333 61bc 718a e23c 9b70 4b3c
00000050: 82a2 80bd 40fb d23b 7352 08bd 5085 803c
00000060: 1f2a 4bbd 8ebf e03c b495 cfbc 0d76 40bd
00000070: e3d4 89bd 0d5d 333c 5577 33bd d7d8 2cbd
00000080: 8c7a 12bd f7fc 963d 84c6 7b3d a794 7ebd
00000090: bc4e a63c 421f e53c 1c60 863d 0f98 fe3c
000000a0: 1cd9 97bc d012 9d3b 74c8 2a3d 0533 31bd
000000b0: 064d 56bd c950 dd3c d708 cabb 7a71 81bb
000000c0: 36cb 59bd 3235 07bc c8b9 9cbd 5497 0f3d
000000d0: 22c3 ad3c 6524 4b3d 9614 89bb b9e0 d4bc
000000e0: 49bf 953d f490 bdbc 84b1 1e3d 43bb 4f3c
000000f0: 708b 6e3d 661d dc3c ab7b 47bd 2ee8 d73c

fc2.weight f4 [1, 64]
-0.04845027 -0.10293304 0.09834854 -0.10348525 -0.059820704 0.13259432 0.03998889 0.08909779
0.08061202 -0.124279834 -0.03216867 0.12925042 0.09575293 -0.13983016 0.047355104 -0.04996687
-0.118767984 -0.10774385 0.026560321 -0.09628568 -0.028637633 0.023460552 -0.10924629 0.10244838
-0.019007826 -0.08726442 0.1162477 -0.09087981 -0.038420405 0.041148845 0.1312832 0.039856788
0.11498575 0.1281987 0.0330306 -0.07016709 0.08100468 0.011550937 0.05055407 0.064824305
0.032152887 -0.10026335 0.10149327 0.122873455 0.10329491 -0.059145793 0.061434634 0.06773662
0.02699581 0.13049905 -0.14576563 -0.070412025 0.08732569 0.032276865 -0.109188125 0.044813935
0.0674854 -0.01898494 0.06178225 -0.010158424 0.019964045 0.02890902 -0.11122049 0.09540995
00000000: ca73 46bd 8fce d2bd f66a c93d 13f0 d3bd
00000010: 8e06 75bd cec6 073e 64cb 233d e778 b63d
00000020: ea17 a53d 6d86 febd 4cc3 03bd 395a 043e
00000030: 1d1a c43d a32f 0fbe 6df7 413d 10aa 4cbd
00000040: a13c f3bd cfa8 dcbd 0895 d93c 6d31 c5bd
00000050: 7899 eabc 5830 c03c 85bc dfbd 75d0 d13d
00000060: 4db6 9bbc b0b7 b2bd 4613 ee3d 321f babd
00000070: b75e 1dbd b18b 283d 1a6f 063e df40 233d
00000080: a67d eb3d 8546 033e 184b 073d c3b3 8fbd
00000090: c8e5 a53d 2440 3d3c c911 4f3d 9bc2 843d
000000a0: bfb2 033d df56 cdbd b4db cf3d 14a5 fb3d
000000b0: 488c d33d dc42 72bd e2a2 7b3d 7fb9 8a3d
000000c0: 5126 dd3c 8ba1 053e 9643 15be 2e34 90bd
000000d0: d0d7 b23d bf34 043d 069e dfbd d18e 373d
000000e0: c935 8a3d 4e86 9bbc 620f 7d3d 856f 26bc
000000f0: a38b a33c 9cd2 ec3c 91c7 e3bd 4b66 c33d
